_________________________________________________________________
Layer (type)                 Output Shape              Param #   
=================================================================
reshape_1 (Reshape)          (None, 44100, 1)          0         
_________________________________________________________________
conv1d_1 (Conv1D)            (None, 22050, 64)         192       
_________________________________________________________________
max_pooling1d_1 (MaxPooling1 (None, 11025, 64)         0         
_________________________________________________________________
conv1d_2 (Conv1D)            (None, 5512, 64)          8256      
_________________________________________________________________
max_pooling1d_2 (MaxPooling1 (None, 2756, 64)          0         
_________________________________________________________________
conv1d_3 (Conv1D)            (None, 1378, 128)         16512     
_________________________________________________________________
max_pooling1d_3 (MaxPooling1 (None, 689, 128)          0         
_________________________________________________________________
conv1d_4 (Conv1D)            (None, 344, 128)          32896     
_________________________________________________________________
max_pooling1d_4 (MaxPooling1 (None, 172, 128)          0         
_________________________________________________________________
conv1d_5 (Conv1D)            (None, 86, 256)           65792     
_________________________________________________________________
max_pooling1d_5 (MaxPooling1 (None, 43, 256)           0         
_________________________________________________________________
conv1d_6 (Conv1D)            (None, 21, 256)           131328    
_________________________________________________________________
max_pooling1d_6 (MaxPooling1 (None, 10, 256)           0         
_________________________________________________________________
conv1d_7 (Conv1D)            (None, 5, 512)            262656    
_________________________________________________________________
conv1d_8 (Conv1D)            (None, 2, 512)            524800    
_________________________________________________________________
conv1d_9 (Conv1D)            (None, 1, 1024)           1049600   
_________________________________________________________________
flatten_1 (Flatten)          (None, 1024)              0         
_________________________________________________________________
dense_1 (Dense)              (None, 1024)              1049600   
_________________________________________________________________
dropout_1 (Dropout)          (None, 1024)              0         
_________________________________________________________________
dense_2 (Dense)              (None, 11)                11275     
=================================================================
Total params: 3,152,907
Trainable params: 3,152,907
Non-trainable params: 0
_________________________________________________________________
None

--- Fit the model ---

Epoch 1/100

   1/1000 [..............................] - ETA: 35:22 - loss: 2.3987 - acc: 0.0900
   2/1000 [..............................] - ETA: 19:32 - loss: 2.3908 - acc: 0.1400
…
