…
2018-12-03 14:54:00.879750: I tensorflow/core/common_runtime/gpu/gpu_device.cc:971] 0:   N 
2018-12-03 14:54:00.879887: I tensorflow/core/common_runtime/gpu/gpu_device.cc:1084] Created TensorFlow device (/job:localhost/replica:0/task:0/device:GPU:0 with 5322 MB memory) -> physical GPU (device: 0, name: GeForce GTX 1060 6GB, pci bus id: 0000:01:00.0, compute capability: 6.1)
_________________________________________________________________
Layer (type)                 Output Shape              Param #   
=================================================================
reshape_1 (Reshape)          (None, 44100, 1)          0         
_________________________________________________________________
conv1d_1 (Conv1D)            (None, 22050, 64)         192       
_________________________________________________________________
max_pooling1d_1 (MaxPooling1 (None, 11025, 64)         0         
_________________________________________________________________
conv1d_2 (Conv1D)            (None, 5512, 64)          8256      
_________________________________________________________________
max_pooling1d_2 (MaxPooling1 (None, 2756, 64)          0         
_________________________________________________________________
conv1d_3 (Conv1D)            (None, 1378, 128)         16512     
_________________________________________________________________
max_pooling1d_3 (MaxPooling1 (None, 689, 128)          0         
_________________________________________________________________
conv1d_4 (Conv1D)            (None, 344, 128)          32896     
_________________________________________________________________
max_pooling1d_4 (MaxPooling1 (None, 172, 128)          0         
_________________________________________________________________
conv1d_5 (Conv1D)            (None, 86, 256)           65792     
_________________________________________________________________
max_pooling1d_5 (MaxPooling1 (None, 43, 256)           0         
_________________________________________________________________
conv1d_6 (Conv1D)            (None, 21, 256)           131328    
_________________________________________________________________
max_pooling1d_6 (MaxPooling1 (None, 10, 256)           0         
_________________________________________________________________
conv1d_7 (Conv1D)            (None, 5, 512)            262656    
_________________________________________________________________
max_pooling1d_7 (MaxPooling1 (None, 2, 512)            0         
_________________________________________________________________
conv1d_8 (Conv1D)            (None, 1, 512)            524800    
_________________________________________________________________
flatten_1 (Flatten)          (None, 512)               0         
_________________________________________________________________
dense_1 (Dense)              (None, 1024)              525312    
_________________________________________________________________
dropout_1 (Dropout)          (None, 1024)              0         
_________________________________________________________________
dense_2 (Dense)              (None, 11)                11275     
=================================================================
Total params: 1,579,019
Trainable params: 1,579,019
Non-trainable params: 0
_________________________________________________________________
None

--- Fit the model ---

Epoch 1/200

  1/100 [..............................] - ETA: 3:05 - loss: 2.3994 - acc: 0.0500
  2/100 [..............................] - ETA: 1:42 - loss: 2.3952 - acc: 0.0800
…
